Part4/ch2_parameters.npz (npz, 7051 bytes, 4 tensors)

W_h (column-major) f4 [2, 128]
000000 1c 6e 23 bf 6a 1d bb be 71 58 11 3f b2 5f f0 3e
       -0.6383989 -0.3654588 0.56775576 0.4694801
000010 e0 3a 63 3e fe 27 b0 3e 35 4b a8 be 09 c7 31 3f
       0.22190428 0.34405512 -0.32869878 0.6944433
000020 a2 69 f6 3e 3c 3d 03 be a0 d5 ad 3c 80 9b 66 3e
       0.48127466 -0.12816328 0.021220028 0.22520256
000030 38 3b 93 3e 27 7a 1c bf d0 f4 31 bf 6b f5 0e 3f
       0.28756118 -0.6112389 -0.6951418 0.5584323
000040 69 31 03 bf ad 52 87 be 2b 08 1c 3f 28 7c 2e be
       -0.5124727 -0.26430264 0.60949963 -0.1703955
000050 f1 02 1a 3f 36 8d 59 be 88 1e c0 bd 95 e5 b4 be
       0.6016074 -0.21245274 -0.093808234 -0.35331407
000060 fe 1f ea 3e 45 49 1a 3f e5 0b 01 bf 60 b7 76 be
       0.45727533 0.6026805 -0.50408775 -0.2409339
000070 14 a9 3b be 56 74 b1 3e a3 ad 19 bf 2e fe be 3e
       -0.18326217 0.3465907 -0.60030574 0.373033
000080 58 c1 ef 3d 80 fb a5 bc 67 2a 10 3f 94 cb 92 3e
       0.11706799 -0.020261526 0.563147 0.28670943
000090 36 11 89 be d8 2f 38 be d0 89 7c 3d 80 c5 87 3e
       -0.26770943 -0.17987001 0.061654866 0.26517868
0000a0 d8 e4 a0 3d 8c 3b 21 bf 00 84 c9 bd 1c 8b 23 be
       0.078561485 -0.62981486 -0.0983963 -0.15971035
0000b0 da 84 9d be 23 64 22 bf a0 c4 f3 3c e4 cb 93 3e
       -0.3076542 -0.63434047 0.029756844 0.28866494
0000c0 89 0e 26 bf 90 07 2b be f4 6e 40 be a4 c3 9b be
       -0.6486593 -0.16702104 -0.18792325 -0.304227
0000d0 ea b5 e7 3e ce f4 fc 3e 98 99 c5 bd 80 bf a9 bd
       0.45255977 0.4940552 -0.09648436 -0.08288479
0000e0 7e 62 c4 3e ec db 7f 3e 80 67 c6 bc 20 59 be be
       0.38356394 0.24986237 -0.024219275 -0.37177372
0000f0 c0 4b 0f bf a2 e8 0e bf 00 08 4f 3b a6 cf 86 be
       -0.5597496 -0.5582372 0.0031590462 -0.26330298
000100 21 be 00 3f 20 19 69 bd b0 96 8a 3e 0a dc fd be
       0.50290114 -0.056908727 0.2706809 -0.4958194
000110 20 2e 6d 3e d6 ae db 3e 44 55 88 be f9 38 33 3f
       0.23162127 0.42906827 -0.26627553 0.7000881
000120 c0 b2 eb 3d 24 99 31 bf f6 a1 ab 3e c7 34 25 3f
       0.11508703 -0.693743 0.33522004 0.64533657
000130 f0 f3 e0 bd 88 fd eb be 80 72 22 be 97 39 11 bf
       -0.109840274 -0.46091866 -0.15863991 -0.567285
000140 0c 55 4f be 86 21 fe be 93 61 1c bf dd 3b 22 3f
       -0.20247287 -0.4963495 -0.61086386 0.63372594
000150 18 aa 6d be ea 7d 86 3e f4 46 10 bf 54 c7 d0 be
       -0.23209417 0.2626794 -0.56358266 -0.40777075
000160 b9 97 23 3f e0 07 0e be 32 91 ed 3e 75 d2 2d bf
       0.63903385 -0.13870192 0.46399838 -0.67899257
000170 44 d7 2b bf 0c d8 13 bf 44 e4 02 be be 11 fc 3e
       -0.67125344 -0.57751536 -0.12782389 0.49232286
000180 19 1b 00 bf 40 ce 0d bf 38 a7 a9 bd f6 e2 80 3e
       -0.5004135 -0.5539284 -0.082838476 0.25173157
000190 42 85 c4 3e 74 54 34 be 90 f8 11 be ea bf cd 3e
       0.38382918 -0.17610341 -0.14254975 0.4018548
0001a0 18 1a f0 bd ae 53 20 bf 98 5c 99 3d f0 22 c3 bd
       -0.11723727 -0.62627685 0.07488364 -0.09528148
0001b0 37 86 26 bf c4 ef 40 be 02 ad 11 bf d2 1a ae 3e
       -0.65048546 -0.18841463 -0.56904614 0.34004837
0001c0 60 7c 44 3e 1a cb e7 3e c2 58 a3 3e 43 18 1a 3f
       0.1918807 0.45272142 0.31903654 0.6019327
0001d0 26 40 eb 3e e8 cd a6 3d b2 2f b1 3e 52 64 1b bf
       0.4594738 0.08144742 0.346067 -0.6069995
0001e0 46 d0 b2 3e 1a 93 9b 3e b1 d3 23 3f 5c 74 2c 3e
       0.34924525 0.30385667 0.6399489 0.16841263
0001f0 00 ac 74 be 77 9c bc be 96 64 bc 3e d2 9d 95 be
       -0.23893738 -0.36838123 0.3679549 -0.2922197
000200 d2 13 ff 3e 5c 84 39 3e 90 ad 2d 3e 17 d1 2f 3f
       0.4981981 0.18116897 0.1696074 0.6867842
000210 68 ce 11 be 70 70 30 be 05 ee 0c 3f 1c 64 11 3e
       -0.14238894 -0.17230392 0.5505069 0.14198345
000220 80 3d 4a be 80 72 d7 bc 1c e5 26 bf 45 22 2b 3f
       -0.19750023 -0.026299715 -0.65193343 0.66849166
000230 22 6b 94 3e 8e c8 22 bf 5a c5 b2 3e d0 d1 6d 3d
       0.28987986 -0.6358727 0.34916192 0.05806142
000240 f0 81 3b be 68 e8 ca be 97 c6 33 bf 90 e8 8c 3e
       -0.18311286 -0.39630437 -0.702249 0.2752118
000250 2b 59 2d 3f 6c 2b 34 be 20 5c e5 be 44 14 fc be
       0.67714185 -0.17594689 -0.44796848 -0.4923421
000260 8e cf f8 3e 60 30 09 bd a5 07 26 3f 49 35 23 3f
       0.48595852 -0.0334934 0.64855415 0.6375318
000270 24 8d e6 be 6c 2e 47 3e 0e 87 8f 3e c6 08 ee 3e
       -0.45029557 0.19451302 0.28032726 0.4649107
000280 3a ec bf 3e da 53 c2 3e 5e 51 b1 3e 88 f4 4d 3e
       0.37484914 0.379546 0.3463239 0.20112813
000290 3e e0 b5 be 60 a1 2a bd 6f 53 26 3f fe e6 e3 3e
       -0.35522646 -0.041657805 0.6497106 0.4451217
0002a0 4c 35 2a be 18 8e f5 bd 96 86 1b bf 1f 00 01 3f
       -0.16621894 -0.11989993 -0.60752237 0.5039081
0002b0 ed 34 da be 00 89 57 3c 77 ad 9f be 3a 97 f8 3e
       -0.42618504 0.013155222 -0.3118703 0.48552877
0002c0 a8 80 ba be 41 c2 20 3f 89 8c 10 3f ec 8e 80 3e
       -0.36426282 0.6279641 0.5646444 0.2510904
0002d0 67 54 29 bf da 87 b6 3e 4a e3 7c be 96 47 69 be
       -0.6614441 0.35650522 -0.24696079 -0.22781214
0002e0 ea ea b3 be de 95 ec 3e 90 e9 58 3e a0 14 6a 3e
       -0.35140163 0.4620809 0.21182847 0.2285943
0002f0 e9 e5 2f 3f 88 dd d9 be 80 b5 a3 3b f0 2c 6d 3e
       0.6871019 -0.42551827 0.0049960017 0.23161674
000300 7a d6 c5 3e 9e 5e 8d 3e 43 38 2e bf 06 95 83 3e
       0.38640195 0.2761125 -0.680546 0.25699633
000310 c0 17 43 3d 92 70 da 3e 14 9a 58 3e 4d bb 31 3f
       0.04763007 0.4266401 0.21152526 0.69426423
000320 80 26 6a 3d 60 af 27 bd 00 93 d5 bb a9 89 1e 3f
       0.057165623 -0.040938735 -0.006517768 0.619288
000330 98 b5 e5 be 22 6e d1 3e 40 2d 09 3d bd b6 0e 3f
       -0.44865108 0.40904337 0.03349042 0.55747586
000340 44 fb 12 bf a1 0f 0b 3f 8f c7 9e be ec 8a 06 3e
       -0.5741465 0.5432072 -0.31011626 0.13138932
000350 9b 56 be be 3b 59 2c 3f ad f1 0b 3f f0 fe 20 bf
       -0.3717545 0.67323655 0.5466564 -0.62889004
000360 53 18 25 bf f0 56 96 be 6e 6e 91 be 0b a4 1c bf
       -0.6449024 -0.29363203 -0.28404564 -0.6118781
000370 f8 ff b3 3d 30 b7 6b bd 78 f1 92 bd c9 ae c0 be
       0.087890565 -0.057547748 -0.07174963 -0.3763335
000380 9c 56 06 3e bb f8 2d 3f d1 81 06 3f f6 44 da 3e
       0.13118976 0.6795766 0.52541834 0.42630738
000390 f2 5c 95 3e ec e3 bd be e6 87 fa 3e 6e 6e b6 3e
       0.29172474 -0.37087953 0.48931807 0.35631126
0003a0 ef 86 2c bf 7e 37 e2 3e 28 62 23 be cc 95 25 bf
       -0.6739339 0.44182962 -0.15955412 -0.64681697
0003b0 f6 87 07 bf 10 01 fe 3d 00 2c cb 3b 3b 7a db be
       -0.52941835 0.124025464 0.0062003136 -0.42866692
0003c0 70 05 63 be 96 32 c6 3e ac 7d 5e be 65 5b 2c 3f
       -0.22170043 0.3871047 -0.21727628 0.67326957
0003d0 f0 37 45 3e 90 ef 8c 3d 0a 34 9e 3e 77 7e 15 3f
       0.1925962 0.068816304 0.30899078 0.58396095
0003e0 20 65 3c 3e 20 0c 21 be 15 1e 18 3f f8 7a b4 3d
       0.18397951 -0.15727282 0.594209 0.08812517
0003f0 20 76 43 3d 5d 2c b0 be 75 8e fd be a5 21 04 bf
       0.047720075 -0.34408846 -0.4952275 -0.5161384

b_h f4 [128]
000000 3d d2 23 3f f5 18 1c bf 1d 25 e7 be 2f 59 18 3f
       0.63992673 -0.6097558 -0.45145503 0.59511083
000010 d3 0b 24 3f 70 70 0f be 6a 56 69 be de 7b cf 3e
       0.6408054 -0.14007735 -0.2278687 0.4052419
000020 0f 46 22 bf 8a bb dc 3e 61 3a cc be 1a 97 a7 3e
       -0.6338815 0.4311183 -0.3988829 0.3273247
000030 6f d1 01 bf d6 8d 98 3e 80 f5 18 be e8 d8 82 be
       -0.50710195 0.29795712 -0.14937401 -0.2555611
000040 ed a8 f1 be 36 ab d1 3e d6 c8 ad be 9c 57 94 be
       -0.47199193 0.40950936 -0.33942288 -0.2897309
000050 68 4f 61 be b4 8b 67 3e 46 ff d4 3e 0a b0 ff 3e
       -0.22002947 0.22611886 0.41601008 0.49938995
000060 18 6d 0f bf 92 39 99 3e 00 9c b2 bd a2 46 a2 be
       -0.5602584 0.29926735 -0.08721161 -0.31694514
000070 d2 63 23 bf e1 f0 34 bf ea f7 90 3e 23 59 fd be
       -0.6382419 -0.7068005 0.28314143 -0.49482068
000080 56 3c a5 3e 2f c2 b8 be 0d c2 2c 3f 3d 73 2f bf
       0.32272595 -0.3608565 0.674836 -0.68535215
000090 f8 54 bf 3d b4 a3 06 bf d4 bf 1e bf dc cd 34 be
       0.093423784 -0.5259354 -0.62011456 -0.17656654
0000a0 ab da 00 bf 35 04 1a 3f a8 e1 af bd 9f 75 22 bf
       -0.5033366 0.6016267 -0.085879624 -0.63460726
0000b0 53 91 08 3f 40 25 47 3e 00 2a c0 bd 4f f7 85 be
       0.5334675 0.19447803 -0.09383011 -0.26165244
0000c0 88 46 90 bd 2e af 0c bf 12 4c 25 bf 59 7b 30 3f
       -0.07044703 -0.54954803 -0.645692 0.68938214
0000d0 c2 7a f1 3e 80 71 88 bc af 50 32 3f 44 b5 4e be
       0.4716397 -0.016655684 0.69654363 -0.20186335
0000e0 99 be bb be 16 72 df 3e 52 dc 7e be 80 2a 9a 3b
       -0.36668852 0.43641728 -0.24888733 0.0047047734
0000f0 4a 56 dd 3e 71 31 2f bf 10 99 4e 3e 07 fd 0d 3f
       0.43229896 -0.68434817 0.20175576 0.55464214
000100 90 51 1b 3e de 4a 93 be ec 48 46 be c1 07 2c 3f
       0.15167832 -0.28768057 -0.19363755 0.6719933
000110 88 27 5b 3e f3 ea 1f 3f 82 b2 e2 3e 70 a0 f4 be
       0.21401799 0.6246788 0.44276816 -0.47778654
000120 a0 89 42 bd d8 1b 67 3e 2b a2 01 3f 20 69 e3 3d
       -0.04749453 0.22569215 0.50638074 0.111040354
000130 35 4d 23 3f 5c 5e 6b be 54 a9 2c be ee 12 f1 3e
       0.63789684 -0.22985214 -0.16861469 0.47084755
000140 4e a3 9b 3e 29 e5 22 3f 03 49 eb be 50 79 f4 3d
       0.3039803 0.6363092 -0.4595414 0.11937201
000150 58 56 20 bf c8 7d 5d 3e 71 4b d4 be 40 e6 08 3d
       -0.6263175 0.21630013 -0.41463807 0.03342271
000160 c0 c7 80 bd 25 d8 e9 be c2 a6 58 be 82 c7 b4 3e
       -0.06288099 -0.45672718 -0.21157363 0.35308462
000170 90 a4 3b 3e f5 ef 1f 3f 7c 67 08 bf 80 17 c2 bc
       0.18324494 0.6247552 -0.53282905 -0.023692846
000180 c4 bf 13 be b0 39 46 3d 10 e4 6f 3e 1c b5 cc be
       -0.14428622 0.04839486 0.23426843 -0.39981925
000190 a6 41 f0 3e 6a 10 fe 3e e4 b5 17 bf 84 ba b0 be
       0.46925086 0.49621898 -0.5926192 -0.345173
0001a0 f8 4b e2 bd af f1 c6 be 80 a3 39 bd 2f b7 0d bf
       -0.11049646 -0.38856265 -0.04532194 -0.5535764
0001b0 3d 4c 1a bf 68 72 50 3e a0 3d bd 3c 8c 8b 82 3e
       -0.6027258 0.20356143 0.023100674 0.2549709
0001c0 32 e3 ff 3e 3e 8b fa 3e 40 64 3f 3c 02 46 c1 3e
       0.49978024 0.48934358 0.011681616 0.37748724
0001d0 c0 2f 85 3e ea 4a 96 3e da 4e ee be f3 ed 1c 3f
       0.26012993 0.2935403 -0.46544534 0.6130058
0001e0 da e2 8e 3e 3d 78 11 3f 70 65 71 3e 3c 5f a5 be
       0.2790745 0.56824094 0.23573852 -0.3229922
0001f0 10 72 05 bf 0b 7e 1f 3f 17 31 11 3f 00 6a d9 bd
       -0.5212717 0.623017 0.5671553 -0.10615921

W_o (column-major) f4 [128, 10]
000000 b0 a5 42 3c d0 27 b4 bd 83 ba 5f bd 87 ae 9f bd
       0.011880323 -0.08796656 -0.05462123 -0.0779696
000010 7c 1c 26 bd b2 fd 35 bd 76 49 05 bd 5c 3e c2 3c
       -0.04055451 -0.044431396 -0.03254076 0.023711376
000020 ac eb e7 3c cf 02 19 bd fa 5d 4b 3d b4 9a 88 bd
       0.02831062 -0.037356194 0.04965017 -0.06670132
000030 80 a1 f6 3a b2 11 22 3d c6 a8 a3 bd d0 45 1c bc
       0.0018816441 0.039567657 -0.07991175 -0.009538129
000040 0e db aa bd 68 2b 16 3c b5 b0 93 3d ff de 9c 3d
       -0.083425626 0.009165622 0.072114386 0.07659721
000050 cc 3d f5 3c 07 0b 2c bd 21 f2 8a 3d d9 6a b3 bd
       0.029936694 -0.042002704 0.06784464 -0.08760614
000060 52 db 60 3d 22 f5 31 bd fa 06 36 3d 50 a6 aa 3b
       0.05489666 -0.043446667 0.044440247 0.0052078143
000070 ae ae 90 bd 0e 3c 6c 3d cb 7b 9a 3d 10 ad 49 bc
       -0.070645675 0.05767446 0.07543143 -0.012309328
000080 e4 54 19 bd 81 a7 a4 3d 97 18 92 3d 58 3f c3 bc
       -0.037434474 0.08039761 0.071335964 -0.023833916
000090 ba 11 5c bd c0 50 79 bb 97 e7 8b 3d c2 64 79 bd
       -0.053727843 -0.0038042516 0.06831282 -0.060887106
0000a0 78 bd 74 bd d2 ba 59 3d fd ca 9d bd ae ce 50 3d
       -0.059751004 0.05315668 -0.077047326 0.050978355
0000b0 df 3d 5d bd b0 a1 5c 3c 42 b2 e7 bc 70 8d 7f 3c
       -0.054014083 0.013466284 -0.028283242 0.015597686
0000c0 77 5d 10 bd b0 a1 e7 3c f2 fd 67 3d 5e 1b 5f bd
       -0.035245385 0.02827534 0.056638665 -0.05446946
0000d0 4d 18 98 3d a0 09 7a 3b 94 57 ee bc aa 33 20 3d
       0.0742651 0.003815271 -0.029094495 0.03911177
0000e0 b5 43 26 bd a0 2f 5b bb 0b 01 96 3d eb aa 80 bd
       -0.040591914 -0.0033445135 0.07324418 -0.062826
0000f0 d7 f0 a3 3d cb 10 9e 3d 54 61 d8 3c e0 72 0a 3d
       0.08004921 0.07718047 0.026413597 0.03380096
000100 21 77 82 bd 51 ea a5 3d 80 b4 7c ba 38 e2 5f bc
       -0.06370378 0.08101333 -0.00096399337 -0.013664775
000110 1a 12 0a 3d 81 77 6d bd e7 e8 35 bd 9d 6f 81 bd
       0.03370867 -0.057975296 -0.044411566 -0.06320117
000120 a8 72 70 bc 01 08 23 bd 12 de 1e 3d b2 6d 9e bd
       -0.014675774 -0.039802555 0.038786 -0.077357665
000130 5d 3d 31 bd 33 1d ac bd 60 a3 57 bc 2d fd 92 3d
       -0.04327141 -0.08404007 -0.01316151 0.07177196
000140 4a 2c 25 3d 55 cd 83 3d b0 ae f3 3c b1 51 b3 3d
       0.04032544 0.06435648 0.029746383 0.08755816
000150 64 cd 3e bd aa c9 29 bd d6 29 90 bd 97 9a 9b 3d
       -0.046582595 -0.041452087 -0.070392296 0.07597845
000160 1f 87 b1 bd 80 45 a4 3a 80 37 2c bd a6 2c 27 3d
       -0.086683504 0.001253292 -0.042045116 0.040814064
000170 9e 5d 19 3d de f3 3d 3d 00 0e 07 b9 0e 14 20 3d
       0.037442796 0.046375148 -0.00012879819 0.039081626
000180 ad de 9b bd 41 56 85 3d 28 51 c8 bc b0 26 a1 bc
       -0.076108314 0.06510592 -0.02445276 -0.019671768
000190 b8 a3 7a 3c 4a a6 14 bd c5 32 22 bd 20 d7 00 bc
       0.015297823 -0.036291398 -0.0395992 -0.00786379
0001a0 40 24 42 bc ff ed 97 3d a2 c9 39 3d 80 98 68 bd
       -0.011849463 0.07418441 0.045358308 -0.05678606
0001b0 c9 7b 9f 3d 98 cc 3c bd 2c 95 cf bc 43 d7 a0 3d
       0.07787282 -0.046093553 -0.025339685 0.07853558
0001c0 55 ca 8f 3d 0f fa 8c 3d 8a 93 26 3d 2e 67 99 bd
       0.07021014 0.068836324 0.040668048 -0.07490383
0001d0 da 02 70 bd 8f 7b 28 bd e4 30 cb 3c d1 81 a1 3d
       -0.05859647 -0.04113346 0.024803586 0.07886089
0001e0 42 bb 3e 3d 10 fe 71 3c 94 22 75 bd 12 c0 71 3d
       0.0465653 0.014770046 -0.05984743 0.059021063
0001f0 00 a0 90 38 60 32 f0 3c 0f 51 2d bd 3f 9f 96 bd
       6.8962574e-05 0.029320896 -0.04231363 -0.073545925
000200 be 5b a1 bd ac 3a da bc 39 75 86 bd 01 d1 9c bd
       -0.078788266 -0.026639305 -0.06565327 -0.07657052
000210 71 4e b2 3d 10 76 0f 3d 30 26 40 bc c7 4b a0 bd
       0.08706368 0.035024703 -0.011727855 -0.078269534
000220 d6 7d 80 bd cb d3 aa bd 14 8b b4 bc 35 b5 80 3d
       -0.06274001 -0.083411776 -0.022038974 0.062845625
000230 10 9f 3e bc bc c0 a0 3c c0 98 d4 bb 3e 88 5b 3d
       -0.011634603 0.019623153 -0.006487936 0.053596728
000240 d7 1a ad 3d 27 59 13 bd 26 57 8b bd 2a 5e 54 3d
       0.08452385 -0.035973694 -0.068037316 0.051847614
000250 c2 9c 6f 3d 40 46 e6 3b e1 c1 22 bd 60 d5 aa bc
       0.058499105 0.0070274174 -0.03973568 -0.020853698
000260 d2 f5 4c 3d f8 53 d8 3c 42 cb fb bc d4 02 ce 3c
       0.05003912 0.026407227 -0.03073657 0.025147833
000270 b4 92 e2 3c a8 d3 cf bc ad 9c 4f bd 70 54 b1 3c
       0.027657844 -0.02536948 -0.050686527 0.021646708
000280 ac 12 b2 3c 1f a0 af 3d 28 d7 6e bc 20 f6 55 3c
       0.02173742 0.085754625 -0.014577664 0.013059169
000290 cc 49 a0 3c 5a 84 22 3d 22 0b 2a 3d aa 6a 7c bd
       0.01956644 0.039677 0.041514523 -0.06162516
0002a0 69 bd 99 3d 08 f7 8d 3c f9 b4 b4 3d 1c 89 8b bd
       0.0750683 0.017329708 0.0882358 -0.06813261
0002b0 a3 40 a1 3d c1 83 84 3d 4d 41 0a bd 96 0b a7 bd
       0.078736566 0.064704426 -0.033753682 -0.08156507
0002c0 58 fa 6b 3c 3a 2b 5d 3d fb f1 38 bd 4a 58 16 3d
       0.014402948 0.053996302 -0.045152646 0.036705293
0002d0 08 54 63 3c 61 b9 99 3d 29 5c b0 3d 06 7f 24 3d
       0.013875015 0.07506061 0.08611328 0.0401602
0002e0 40 a6 7c bc 5c 4c f2 bc a6 49 7f 3d b3 76 43 bd
       -0.015420496 -0.029577427 0.062326096 -0.047720622
0002f0 27 92 06 bd 0a d4 53 bd 38 7f b4 bd cd ee a2 3d
       -0.032854225 -0.051715888 -0.088133276 0.07955704
000300 6e 2e 68 3d 68 47 14 3d 7b 9a 85 3d fb 0a 81 3d
       0.056684904 0.03620091 0.065236054 0.063009225
000310 ee 07 7a 3d be e8 6b bd 72 31 6c 3d 80 3c cd bb
       0.06104272 -0.057595007 0.057664342 -0.0062633157
000320 73 b8 ad 3d b1 4e 9f 3d 04 d3 a1 3c 73 0b 43 bd
       0.084824465 0.07778681 0.01975394 -0.04761834
000330 0b 6f aa 3d 47 4b b3 bd 0d 7d 1b bd 80 1d d7 3c
       0.08321961 -0.087545924 -0.037961055 0.026259184
000340 18 a2 27 3c 46 2d 89 bd 7b 7e 53 bd bc 44 8d 3c
       0.010231517 -0.06698088 -0.051634293 0.01724469
000350 fc a7 8b bc 5c 09 92 bd 56 fc 51 3d 5d 6e 85 3d
       -0.017047875 -0.071306914 0.051266037 0.06515191
000360 28 04 0c bc 06 5b 37 3d bc 30 96 3c 92 03 49 3d
       -0.008545913 0.04476454 0.018333785 0.04907567
000370 00 96 12 3a 2c 6b db 3c f6 a4 7b 3d da 13 e1 bc
       0.000559181 0.026784502 0.061436616 -0.027475286
000380 9f 22 82 3d f4 b0 ca 3c fc 84 92 bd 9d db 8f 3d
       0.0635426 0.024742581 -0.07154271 0.0702431
000390 1b bb 0d bd 2f 27 b1 bd 6c 1d b7 bc 82 fc b2 bd
       -0.034602266 -0.08650052 -0.022352897 -0.08739568
0003a0 e0 76 cf bc 58 86 b3 bc 50 50 82 bd a9 74 93 3d
       -0.025325239 -0.021914646 -0.06362975 0.071999855
0003b0 1a 07 62 3d a6 4f 36 3d 5d 18 a7 3d 66 06 13 bd
       0.055182554 0.044509552 0.08158944 -0.035894774
0003c0 58 6e 0b 3d b3 bc 86 3d c7 e6 90 3d 6c 8d 04 3d
       0.03404078 0.0657896 0.07075267 0.032361433
0003d0 d6 ff 25 3d 47 7c a3 3d 7b 39 97 3d 80 54 90 bd
       0.040527187 0.079826884 0.073840104 -0.07047367
0003e0 5d b0 94 3d 64 3f 0e bd ae cf 6a 3d 92 6d b0 bd
       0.07260201 -0.034728423 0.057326965 -0.08614649
0003f0 3d 7c a1 3d 89 f5 96 3d 70 b6 ce bc 8b 4a a5 3d
       0.07885025 0.07371051 -0.025233477 0.080708586

b_o f4 [10]
000000 cb 67 67 bd 80 4d 87 3c 00 8a 4e b9 20 b3 53 3c
       -0.05649547 0.016516447 -0.000196971 0.012921125
000010 a3 86 9c 3d f2 d5 2d 3d 71 1d aa 3d d3 e8 01 bd
       0.076428674 0.042440362 0.08306397 -0.03171618
000020 d2 76 14 3d 06 e6 7e 3d
       0.03624613 0.062231086
